pendulum_pHNN_weights.pth (torch, 26780 bytes, 14 tensors)

J f4 [2, 2]
00000000: f87d 72bf 0057 d43f bcfa 76bf fef0 793e
-0.94723463 1.658905 -0.9647634 0.24408337

R_net.net.0.weight f4 [64, 2]
00000000: 6800 3e3f 7b46 143e a910 37be 8026 66bf
00000010: 831d 3abf 66a6 1d3f 09d8 23bd 3fb4 5abd
00000020: 199a 4b3d 8d9c a9be b603 893f 4db6 9d3c
00000030: b164 eb3e f214 0b3f 4562 3cbf 3a3c 98be
00000040: 8265 aebe 464a d3be 8b6f 04bf 5287 833d
00000050: 368b 3d3e 5252 cfbe 9596 84bd 8c94 1ebd
00000060: 1140 903d ad99 c23d 23c1 a43e 265c a73e
00000070: f36b ce3e 8c7b 23bd eb76 273f 12e7 ea3d
00000080: c157 8ebf 423a 20bd 9974 abbe a118 31be
00000090: a119 28be e62b 8a3d 4d1f debb 2fc8 b43e
000000a0: ca6f 9c3e 9aef 96be 9d4f 52bf 4a6f 70be
000000b0: b48c f5bd 83f8 05be 235a 18bf dde7 a1be
000000c0: 34c5 7bbf fa9b a9be b9dc b7bb 2807 f5be
000000d0: 6579 443f 8b47 973d 9f72 da3e 7dc2 e6bd
000000e0: b5fe f23d 1d4b 293e 86e0 543e 684a 00be
000000f0: 1c7f 8a3c eaff 3e3e 935a 6dbf 2ecf 833e
00000100: f650 07bf 18be d3be 2f8e 413e 9355 9abe
00000110: 923b 1e3c 565e 9a3e 8cc2 2b3e 1154 d9bc
00000120: 4281 fbbc 7492 9b3e e333 c13d 059e e83e
00000130: 7ad5 50be 4529 733f d199 b73c d72d 373e
00000140: 374e 44be 2d26 103e 4b05 d03d 9a9d cb3d
00000150: 92fc 22bf d1e4 2ebe 5b41 c4be 60c5 083e
00000160: 2ac4 bf3e 24b6 b03c 2c4b f0be e439 adbe
00000170: b2ba df3e 3058 a83e 2780 c33e f910 813e
00000180: 2adc 00bf 9b6a d13e b141 1ebf 584a 59be
00000190: 4ad6 14be 1753 933d e583 3b3d 8931 a1be
000001a0: 8a81 6abf eb82 1a3e 8998 67be fd87 313e
000001b0: 6103 d03c fe97 6b3f 7e5c 55bd 0b2b 65bf
000001c0: 1b2d 1ebf 0dbc 0f3e dce0 fc3e 54aa 25bf
000001d0: 8cf6 a5bf 4e65 1ebc 224a eb3e 1497 10bf
000001e0: 5fee 6bbe c4bb 3c3e a564 0ebd 08e4 81be
000001f0: 5fd8 7c3e fe9a ecbe e028 033e 27c6 213e
0.7421937 0.14480011 -0.17877449 -0.89902496 -0.7270128 0.6158203 -0.04000095 -0.053394552
0.049707506 -0.3312725 1.0704257 0.019251967 0.4597526 0.54328835 -0.7358745 -0.2973345
-0.3406182 -0.41267604 -0.517327 0.06422295 0.18510136 -0.40492493 -0.06474034 -0.038715884
0.0704347 0.095019676 0.32178602 0.3268749 0.40316734 -0.039912745 0.6541583 0.114698544
-1.112053 -0.03911806 -0.33487394 -0.17294551 -0.16416027 0.06746654 -0.0067786337 0.35308978
0.30554038 -0.29479676 -0.8215273 -0.23479953 -0.119897276 -0.13083081 -0.5951254 -0.3162221
-0.98347783 -0.33126813 -0.005611029 -0.47857022 0.76747733 0.073866926 0.42665574 -0.112675644
0.11864988 0.1653256 0.20788774 -0.12528384 0.016906314 0.18652311 -0.9271633 0.25744003
-0.5285791 -0.41355968 0.18901895 -0.30143413 0.009657757 0.30150098 0.16773432 -0.026529344
-0.030701283 0.30385172 0.09433725 0.4543306 -0.20393935 0.9498485 0.022412213 0.1788858
-0.19170462 0.14077063 0.101572596 0.099421695 -0.6366664 -0.17079474 -0.38331112 0.13356543
0.3745435 0.021571226 -0.46932352 -0.3383323 0.43697125 0.32879782 0.3818371 0.25208262
-0.50335944 0.40901646 -0.6181899 -0.21219766 -0.1453487 0.071935825 0.04578008 -0.31483105
-0.9160391 0.15089004 -0.22616781 0.17337032 0.025392236 0.92028797 -0.05209016 -0.89518803
-0.61787575 0.1403658 0.49390304 -0.64713025 -1.2965865 -0.009667708 0.45954996 -0.56480527
-0.2304015 0.18431002 -0.03476395 -0.25369287 0.24691914 -0.46212 0.12808561 0.15798245

R_net.net.0.bias f4 [64]
00000000: daf2 93bd f248 aabe 222f 6fbe 4009 263f
00000010: 6c4c fa3e 158d 5b3e c084 a8be 3585 9bbd
00000020: e071 2bbf b2b1 ab39 7766 70be 1dfc b33e
00000030: de11 223e 89aa 52bf 668d 50be 1126 383e
00000040: 30f0 30be 2d29 fa3e 6858 00bf 2c4b 45bf
00000050: 1f1f 80be 6b7a b83e 0b4c 3fbf a13a 82bf
00000060: 262e 613e fd31 3dbf 91d8 01bf c4bc 023f
00000070: 2600 2a3f b405 283f 1baf 83be bf09 a0be
00000080: 0fb2 4cbf e564 8bbe 2b22 bf3e cb4a 213f
00000090: aa7d c4be 2146 473f a043 e3be 228e 59be
000000a0: 6602 ae3e c109 0dbf fdbf 3abe 323f 8cbd
000000b0: 7251 21bf 05ca 40bf f923 1abe dfd0 053f
000000c0: 1419 083e ba1c 7c3f 2215 84be 4ba7 1e3f
000000d0: 6661 ffbd 0abb 1dbf e2f9 5bbe 3db4 ac3e
000000e0: f955 dcbe 7762 97be 3ba5 4bbe 6879 0f3f
000000f0: 3a91 2cbf a36f 8bbe af02 313d 1fca 4dbe
-0.07224055 -0.33258778 -0.23357823 0.64857864 0.4888643 0.21440537 -0.3291378 -0.075937666
-0.66970634 0.00032748055 -0.23476587 0.35153285 0.15827128 -0.82291466 -0.20366439 0.17983271
-0.17279124 0.4885954 -0.501349 -0.7706783 -0.25023744 0.36030897 -0.7472541 -1.0174142
0.2199026 -0.739044 -0.5072108 0.51069283 0.66406476 0.656337 -0.25719532 -0.31257436
-0.79959196 -0.27225414 0.37330756 0.6300475 -0.38377124 0.77841383 -0.4438753 -0.21245626
0.33986205 -0.5509301 -0.182373 -0.06847991 -0.630149 -0.7530826 -0.15052785 0.52271837
0.13290817 0.98481333 -0.25797373 0.6197402 -0.12469749 -0.61613524 -0.21482041 0.3373126
-0.43034342 -0.2956731 -0.19887249 0.56044626 -0.674091 -0.2723361 0.04321545 -0.20096634

R_net.net.2.weight f4 [4, 64]
00000000: f076 ffbd 08d3 d3bc 9a15 a1bd 14c2 8c3c
00000010: 763e 6a3d b85e a53d dc0f cfbd cab6 3f3e
00000020: 644e d83c bb74 e8bc e276 a33d 8d5e 73bd
00000030: ac69 a93d a89e c53b a05c 673d d2c2 d43d
00000040: 6cc5 67bb cb6f 9cbc a3b5 0fbe 5b65 a13d
00000050: 6ff9 39bd ef0c 543d d38c c5bd f45e 06be
00000060: c824 b43d d12a 233d 2b52 493d 05ec 7ebd
00000070: 7ccf 883c 2ff2 3c3e 8bf1 8a3b 5eb2 3c3e
00000080: 4543 e53a 4c0f e43d c88e a73d 6715 473d
00000090: c137 c93b c074 c0bc cbb8 8d3d 8083 2a3c
000000a0: e8bb 38bd 9abe 173e 1613 9ebc f981 003d
000000b0: 1716 b63d 4012 f2bb cccf 01be 04f3 94bc
000000c0: d1d0 7fbd 6211 99bd 48a5 8c3b 344c babc
000000d0: f723 583e 6151 d0bd adc7 373e 1c21 33be
000000e0: 4178 8a3d bb6e abbc 9990 8ebd 7ede cb3d
000000f0: 2f5c 9ebd c558 86bd 117c 2b3d 1f59 95bd
00000100: 2d70 013d 8781 12be a220 0dbc 396e 42bb
00000110: edc3 fa3d cd91 263d 0d85 663c 45ff efbd
00000120: b84e 78bd fadf 15bd dd08 a8bc cc5a 243e
00000130: 5a4a a6bd 3350 76bd 1aac c13b dbac da3d
00000140: e41c 7db8 5657 8abd 6ca1 80bc 26e8 48bd
00000150: ecfa a33d 170f ab3c f75b c73c 5d31 193d
00000160: efbe d73b 2b17 343e 394b 33bd 18ba d33d
00000170: 7b0a b43d 467e 76bd 1c31 2ebe 40e0 8c3c
00000180: 4fb4 50be 50a8 a5bd 148d dbbd 6a84 00bd
00000190: 90c3 a6bd 3afd e0bd a8e2 0ebd 21d6 58bd
000001a0: d24f 9cbc 1ae2 f4bd 1892 7fbd 8884 c23d
000001b0: 13c8 853d a24b 993c 3fe1 e0bc 1a93 0abd
000001c0: 1d62 72bb 1254 c23d 2048 453d 5aea 133e
000001d0: f973 843c cc0a 403d fe0a dc3d cd04 c4bd
000001e0: 0a2d e0bb 060c 1b3e 6512 933d c174 843d
000001f0: 0fad 443b 80b3 c43d c9bd 8bbc cd34 9cbd
00000200: c6cd d83d aaa5 07bb 2d51 a83d 7607 1b3a
00000210: a0b3 073e 0f65 debd 2562 273c 0930 b9bd
00000220: 5ba3 5fbb 10ae 0f3d 6bec 5ebd 7caf 1a3b
00000230: 1938 20be de39 983d b690 afbc 5b28 bcbc
00000240: 9f86 bf3d 58d2 3abd 4760 143e 7f0b eebc
00000250: 0e8f 073e 1597 aabc 5642 d23d f8a2 d0bd
00000260: 1331 9bba 1884 bf3d b7ba 3b3d 01f3 b8bc
00000270: e0d5 17bd 3f2a 323c ae96 493d 2ba1 483d
00000280: 175e eebd 638f 1dbd 82e5 cdbd 5a07 753d
00000290: d882 02be 1bc4 8f3b 93d4 903d 72c7 f1bd
000002a0: 4925 a43d 888b c83d 6f3e 203d 5e10 92bd
000002b0: 10dd 983d b5e6 1dbd 7c2f bd3d 9dfb f33d
000002c0: 672e 4d3d a630 0fbd c60b ba3c 50d3 b23d
000002d0: 87ac fd3b 824a 6abd f850 a83d a9cb 11bd
000002e0: ea5f 11bd ed5d eb3c 0410 093d df37 e9bd
000002f0: 4b8c 3f3e ca57 ba3d 06e6 993b 574d 033d
00000300: 3eb4 4c3d b870 243e 40fc a83d f0c3 57be
00000310: 7157 ffbd d01d ef3d 921e 4bbe 77b3 ccbc
00000320: ba4f da3d 66ad 483e 2b10 af3d 1b2c 42be
00000330: 156a 543e 6a41 b8bc 840b 11be 30ed 1dbb
00000340: d114 fd3c 0b26 b1bc 11fd 56be 3ff2 733d
00000350: a764 493d c9dd bebd 8fc0 2dbe dc9a 813b
00000360: 5173 c8bd ae40 71bd 0e5c f93c 6f94 3a3c
00000370: fee2 473e ab31 8f3e a48f fc3d 4fb8 493e
00000380: be8b 8c3d c3f1 1e3d bc61 ddbc ff8b e43d
00000390: 3918 493d 7af7 0bbd aa68 383d fd8c 9d3d
000003a0: 1b02 8b3c 5d0d f03d 1232 ddbc 559b a43d
000003b0: d607 39bd 9589 aa3d f3d3 3bbd 8e7a 85bd
000003c0: 2e54 bf3d 69c2 bbbd bddd 26be 97ee 30be
000003d0: 2cd0 50bd 2fcd 67be 25c2 24be 1c71 3e3e
000003e0: e266 d33d 6cb4 603d 0b72 0abe 5b3c b3bb
000003f0: d0ee 96be 86b8 05be ded9 a13d 9012 093e
-0.124738574 -0.025857463 -0.07865448 0.017182387 0.057188474 0.08074707 -0.10110447 0.18722072
0.026404567 -0.028375974 0.079816595 -0.059416343 0.082721084 0.006030876 0.05648482 0.103887215
-0.0035365475 -0.019096276 -0.14034133 0.0788066 -0.045403894 0.051770147 -0.09646001 -0.13122159
0.08796078 0.039835755 0.049150627 -0.062236805 0.016700499 0.1845176 0.00424022 0.18427417
0.0017491361 0.1113573 0.0818153 0.048604395 0.0061406796 -0.02349317 0.06920012 0.010407329
-0.045101076 0.14818802 -0.01929621 0.03137395 0.08890932 -0.0073874295 -0.12676924 -0.018182285
-0.062455002 -0.07474019 0.004292164 -0.022741415 0.2110747 -0.10171772 0.17947264 -0.17493099
0.06761218 -0.020926824 -0.069611736 0.099545464 -0.077324264 -0.065599 0.041866366 -0.07292389
0.03160112 -0.14307223 -0.008613737 -0.0029667749 0.12244401 0.04066639 0.014069808 -0.11718611
-0.060621947 -0.036590554 -0.020512039 0.16050261 -0.0811965 -0.060135078 0.0059104087 0.10677501
-6.0346807e-05 -0.06754939 -0.015701972 -0.04904952 0.08006844 0.020881219 0.024335844 0.037400592
0.0065840404 0.17586963 -0.04377291 0.10338229 0.087910615 -0.060179017 -0.17010921 0.017196774
-0.20381282 -0.08088744 -0.10720268 -0.03137628 -0.08142769 -0.10985799 -0.034884125 -0.052938584
-0.01908103 -0.11957188 -0.062395185 0.094979346 0.06532302 0.018712822 -0.027451156 -0.033831693
-0.003698475 0.094886914 0.048164487 0.14444867 0.016168581 0.046885297 0.10744284 -0.09571228
-0.0068413066 0.15141305 0.07181243 0.064675815 0.0030010378 0.096045494 -0.01705827 -0.076272584
0.10586123 -0.0020698109 0.08218608 0.00059138925 0.13252115 -0.10859119 0.010216271 -0.09042365
-0.0034124467 0.03507811 -0.054424684 0.0023603132 -0.156464 0.07432912 -0.021431308 -0.022968462
0.09351849 -0.045610756 0.14489852 -0.029058216 0.13238165 -0.020823995 0.10266559 -0.10187334
-0.0011840187 0.09351367 0.045832362 -0.02257681 -0.0370692 0.01087433 0.049215965 0.048981827
-0.1163904 -0.038466822 -0.10053541 0.059821464 -0.12745225 0.0043873913 0.07071795 -0.11805619
0.08014924 0.097922385 0.03912204 -0.07132028 0.07464039 -0.038550097 0.092375726 0.11913226
0.05009308 -0.034958504 0.022710692 0.08731711 0.007741514 -0.057199962 0.082185686 -0.035594616
-0.03549186 0.02873131 0.03346254 -0.1138761 0.18705861 0.09098776 0.0046966104 0.03205618
0.04997658 0.16058624 0.08251238 -0.21070838 -0.1246785 0.11675608 -0.1983588 -0.02498792
0.10659738 0.19597396 0.08548006 -0.18962137 0.20743592 -0.02249213 -0.14164549 -0.0024097674
0.030893715 -0.021624586 -0.20994975 0.059557196 0.049168255 -0.09319646 -0.16967987 0.0039552283
-0.0978762 -0.058899574 0.030439403 0.011387928 0.19520184 0.2796758 0.12332085 0.19699214
0.06862591 0.03880478 -0.027024142 0.11159515 0.049095366 -0.03417156 0.04502169 0.07692907
0.016968777 0.11721299 -0.027001414 0.0803744 -0.04517349 0.08327023 -0.045856427 -0.06517516
0.09342228 -0.0916794 -0.16295524 -0.17278515 -0.05097978 -0.22636865 -0.16089685 0.18597835
0.10322358 0.054859564 -0.13520066 -0.0054698414 -0.29479074 -0.13058671 0.07902883 0.13385987

R_net.net.2.bias f4 [4]
00000000: f636 d5bd 145b a3bd 7b83 573d 9085 53be
-0.104108736 -0.07976356 0.052615624 -0.20656419

H_net.net.0.weight f4 [64, 2]
00000000: 5fef 24bf a4c1 583f b056 1dbf ad2a 973e
00000010: b052 21bd 009e 253e bccd 123f d979 b7bd
00000020: 4bb7 3a3f ab31 043f 5802 be3e 9a7b 3cbe
00000030: 4548 3ebf e136 4dbd 84ed 08bf 6d9f bd3d
00000040: 9dc9 8c3e ed3c 063f 2cfa 0abf 14d2 a53d
00000050: 9afc abbe 5991 fa3e 28b9 88be 7ea1 4b3f
00000060: 60fa 533e d12c 19bf eca3 313c c8c1 72be
00000070: e1f4 2dbf 4aba b1be 598a 0cbf 0eb0 a3be
00000080: 91f3 13bf 3576 97bc 586b 04bf 9103 f4b9
00000090: 2c12 073f eb05 513e ece7 303f d883 2b3e
000000a0: 3499 d3bd ae7a c73e 4648 ed3e 9040 2e3e
000000b0: 78fe 0e3e 9791 593e 325f edbe 40d3 4ebe
000000c0: 956b b3be 6b30 6b3e 27ce 85be 4c5a dc3d
000000d0: 49dd b23d 70db bbbe f303 41bf fca7 093f
000000e0: ce81 133f 79b5 f3bd 8b9d bb3e 3316 19bf
000000f0: aca9 8e3e 79ad 9ebd 0cc0 e03e 2f48 003f
00000100: c271 c4be 3380 0c3e 9e08 1dbf 3da6 86bc
00000110: 1de9 53bd 083f 5d3e b3ef 363f ac55 9f3e
00000120: 497c eb3e da31 b43e f4fd 2d3f 797c 1b3e
00000130: 51a1 a1be 5971 67be 32f5 9c3c f9b5 8dbe
00000140: a9b7 2b3e 7246 123e 26fd 333f 6bca 6e3d
00000150: 292b 1bbf 46cb 7abd 7641 78bd aafc 613e
00000160: aaea d73e 1119 58bd 146c e2bd 042e 05bf
00000170: a28a d0bd 4b36 f43e 579d f2bd 9e1e ff3e
00000180: 3793 b43d 8594 01bf 1480 64be e90c df3e
00000190: 5493 bdbd 4eb7 12bf 4b8c 1e3e b25a 2bbe
000001a0: e6f8 2abf 4754 2cbe efca abbe 1bec 6abe
000001b0: 6be7 4ebd f4a8 c73e 4979 7fbe dc55 05be
000001c0: c90f c83e fdf4 21bf ab22 bcbe c1ed ac3e
000001d0: 378f 9b3c b0e9 8bbe 4cc2 a4be 08fa df3c
000001e0: 29b4 a1be 10a6 433d 1321 303f 49e4 f73d
000001f0: f7f2 18bc c259 553e 13d0 36bf 4e43 d43b
-0.6442775 0.8467047 -0.614604 0.29524747 -0.039385498 0.16173553 0.57345176 -0.089587875
0.7293593 0.5163829 0.37111163 -0.18406525 -0.74329025 -0.050101165 -0.5348742 0.09258924
0.2749757 0.52436715 -0.5428798 0.0809671 -0.33591157 0.48939016 -0.26703763 0.7954329
0.20700979 -0.5983401 0.010842305 -0.23706734 -0.6795178 -0.3471244 -0.548986 -0.31970257
-0.5779353 -0.018488983 -0.51726294 -0.00046541964 0.52762103 0.20412414 0.69103885 0.16749513
-0.103319556 0.38960785 0.46344203 0.17016816 0.1396426 0.21246944 -0.4636169 -0.20197773
-0.35043016 0.22967689 -0.26133844 0.1075941 0.08733613 -0.36690855 -0.7539665 0.5377195
0.5761994 -0.118998475 0.36643633 -0.597995 0.27863824 -0.07747931 0.4389652 0.50110143
-0.3836804 0.13720779 -0.61341274 -0.01643669 -0.051735986 0.21606076 0.714595 0.3112005
0.4599326 0.35194284 0.67965627 0.15184201 -0.31568387 -0.22601832 0.019159887 -0.27677897
0.1676928 0.14284685 0.7030815 0.05829851 -0.6061273 -0.061229013 -0.060609303 0.2206904
0.42171222 -0.05275828 -0.110557705 -0.5202334 -0.10182692 0.47697672 -0.118464164 0.49828047
0.088171415 -0.5061725 -0.22314483 0.43564537 -0.09256616 -0.5731095 0.15483205 -0.16733816
-0.6678604 -0.16829024 -0.33553264 -0.2294163 -0.050513666 0.38996089 -0.2494861 -0.13021034
0.39074543 -0.6326445 -0.367452 0.33775142 0.018989189 -0.27326727 -0.32179487 0.027340904
-0.31582764 0.04776579 0.6880047 0.12104089 -0.009335271 0.20835021 -0.71411246 0.00647775

H_net.net.0.bias f4 [64]
00000000: a480 02be bf17 27bf c7e4 263f 3b9b 323f
00000010: 5eb7 313e a723 87bf dbd6 30bf 925e 6ebe
00000020: c53b 5a3f 9199 fdbd 4254 043f c53d 4abe
00000030: 48ce 3f3f 9e71 5d3f 95e2 0cbf 60e2 ccbe
00000040: ad0e 60bd e773 9dbe f285 76bf 5c31 75bf
00000050: c60b 1c3f f689 4f3f a9fc 3cbf 8358 5c3f
00000060: 078a 823f 0f28 e33e 048d 70bf e5a4 b43c
00000070: 1868 f53e 470e 8cbd 81a0 edbe 31dc 46bf
00000080: f146 643f 90ea efbe 21e2 683f 4058 053e
00000090: 39f8 593f 1dd7 5cbf 4919 7d3f 7521 9a3f
000000a0: c0c5 0f3f b3b4 3dbf b31e 04bf f97d 293f
000000b0: b59f d8bd 1be0 10bf 6e97 1f3f 9862 223f
000000c0: a4b2 053f b607 813f a0c3 f9be 5748 0abf
000000d0: 4fd1 6bbf c08d 83bf da96 6cbf f390 7fbf
000000e0: 2552 623e 1b7f 403f 795d 913f f19b 7b3e
000000f0: 2dd4 1a3f d598 6e3f c226 17bf 69c6 073f
-0.12744385 -0.6527061 0.65192837 0.6976811 0.17355105 -1.0557755 -0.69077843 -0.23278263
0.8524745 -0.12382806 0.5169107 -0.19750126 0.74924135 0.8650149 -0.55033237 -0.4001646
-0.054701496 -0.3075249 -0.96298134 -0.9577844 0.60955465 0.81069887 -0.7382303 0.8607256
1.0198373 0.443665 -0.9396517 0.022051284 0.4793098 -0.06838661 -0.46411517 -0.77679735
0.8917075 -0.46858644 0.90970045 0.13021946 0.8514438 -0.86265737 0.9886671 1.204146
0.5616112 -0.7410385 -0.51609343 0.66207844 -0.10577337 -0.5659196 0.6234044 0.6343169
0.5222571 1.0080478 -0.48782063 -0.5401663 -0.92116255 -1.0277634 -0.9241768 -0.9983055
0.22101648 0.7519395 1.135665 0.24571206 0.60480005 0.93201953 -0.59043515 0.53037125

H_net.net.2.weight f4 [64, 64]
00000000: dcda e3bb 3cc9 27bd 7a88 ccbe 3f8e 8fbd
00000010: 59ee a23c 3dca 0d3e 7cba 533e 84c9 87bd
00000020: bcd6 c5bd 9b8c 0e3e 7890 60be 5383 2abe
00000030: 1fd4 c23d e6ae 903c 6835 823b 0a21 293e
00000040: 96eb f03d 3ca1 463d 263e 74bd 1f0d 42bc
00000050: 7cef 21be a960 d5bc b04d 52bc cb2f 073d
00000060: 763d 05be 2199 28bd 04e0 803e b242 95bc
00000070: dadf 1cbe 2e29 7d3e adf0 f6bd 3fee b4bd
00000080: ead5 4c3c d903 043e 59a5 d8be 478d 153d
00000090: 4e81 10be 9758 89bc a776 e43d 1e57 9fbd
000000a0: eae1 6b3e 5e81 11be bbbc a0bb 0092 d4be
000000b0: 7c19 e23c 11cf fdbc 28c5 f8bd 8b51 d2bd
000000c0: b094 cb3d 33fb 88be 3e7e 053e 6d0b a13e
000000d0: c177 dc3d d1e5 febc 0c3f 673d b197 bfbe
000000e0: 47d9 5e3e fada 07be 9588 53be 5db7 d63c
000000f0: e557 a43d da5c 52be d522 0abd 43f2 d63d
00000100: 1907 873b da81 7dbc 570a afbd c81e 81be
00000110: 5a62 463b 9792 9fbc 3d5b ad3c b458 4f3e
00000120: 40ae e8bc f719 3f3e b971 91bd 114c c43d
00000130: 793d 2bbd 3973 1f3e 61a3 e03d 4797 8ebc
00000140: aba9 2e3e c55d 443e b3c0 90be 84b0 a5be
00000150: 6d00 fe3d c84a 29bc a051 c0ba 4e66 b53d
00000160: 4c92 e83b 4e0c 473c f5cd 15be eaba f43d
00000170: c030 a6bd 5ea9 f5bc 2eea dfbd 87e9 89bd
00000180: 2629 7e3d 8b7f 543e 8808 733e 46a2 ecbd
00000190: 170e db3d 1818 17be 1b9c 4b3e d2cb 66bc
000001a0: c56e 963d e36d 5abe 9891 883e cd83 493d
000001b0: fece a0be 59fd 923d 422b bcbd e29e dd3d
000001c0: c8d2 a5bb b174 093e a2e0 95bd e5e4 683c
000001d0: 23ee 2d3e 546c 6e3d e5da bf3d 4bd7 0ebd
000001e0: 7980 f2bd 88d0 213e f8ef e03d 98b3 c13d
000001f0: 97b0 e63c 29d8 3ebe cef3 88bd f71c 6b3e
00000200: 67ae 7cbd 150c 77bd d5d6 cdbd 2bae b6bc
00000210: 1914 afbd e094 b33e 41d5 5fbd 7fdf 243e
00000220: f77e 53bd e956 fa3d 24cb 3ebe e5d4 6bbd
00000230: 0125 2a3c 2d42 fd3c 17ba 91bd e945 a9bd
00000240: c59d ff3a 5f6b 3abd 4b83 2c3d 72e3 f9bd
00000250: af54 38bd f97e 0f3e 75a4 583e 59f6 de3d
00000260: 8bb1 f4be 752c 96be 04d9 e73d b8aa 233e
00000270: 4ec1 943d ed30 433e 4bf8 b23e ad50 103d
00000280: 3785 bdbe 5de8 df3d 57f9 03be 0f4a 333d
00000290: 3e71 cc3d 06cb 62be a5b6 d0be b54a bb3d
000002a0: 6d98 cbbd 2c27 82be d539 06bd b21f e4bd
000002b0: c401 bcbd fa49 93bd f010 85bc 4443 15be
000002c0: 1926 1fbe f1a4 5bbc e5ea 13be c47e c03e
000002d0: 9031 f03c 7089 a03d 1ee7 ca3d 18e1 4f3d
000002e0: db6e 2c3e ff03 68be e968 3dbb e9ea d5bd
000002f0: 27b7 40be fa67 3e3e fce9 863d 9369 5e3e
00000300: b121 7c3d d391 323d 6798 e4be eb02 0dbe
00000310: 282d 0fbe 5058 733e af18 363d 0d52 9c3d
00000320: baf9 bcbd e074 66bd e7b0 88be 9c09 d5bd
00000330: 32dd d6bd 99ae 09be d931 da3d 74c4 603c
00000340: 904a de3d b727 a9bc c542 293e 5766 143e
00000350: e002 9cbe c89d fbbd 2318 3f3c 8d6c c7bc
00000360: e970 13be bd60 38be d710 933e 84e4 253e
00000370: 954e 7dbb 077f 2c3d 0aea 913d 269f 94ba
00000380: 314d 5bbe 4640 983d 2d14 15bf e80b cdbc
00000390: c078 7abe 2d06 5c3d 91ec 1cbe 9b90 b8be
000003a0: 04c8 6cbe d7d2 c43c 0d26 d6bb 0588 b6be
000003b0: 2b53 9fbd 5d5b 32bc 57a3 aabd 1a29 73be
000003c0: 5c8b 183c 256a 1cbe c22e b83d 74d6 bd3e
000003d0: d7bb 5e3e 3492 8a3d e306 cc3d 06cf 283e
000003e0: da9c 3a3e f610 1a3a 0c77 4cbe fca5 eabc
000003f0: de70 00be c20e 7dbe 3e68 d53d be0f ebbd
-0.0069535803 -0.040963396 -0.39947873 -0.07009553 0.019889044 0.13846679 0.20676607 -0.06630233
-0.09660098 0.13920824 -0.2193011 -0.16651659 0.09513115 0.017661523 0.0039736517 0.1651651
0.117636845 0.04849361 -0.059629582 -0.011843949 -0.15814012 -0.026047068 -0.012835905 0.033004563
-0.13011727 -0.04116166 0.2517091 -0.01822028 -0.15319768 0.2472274 -0.12057624 -0.08834504
0.012502173 0.12892093 -0.4231365 0.036511686 -0.14111826 -0.016765876 0.11155444 -0.07780288
0.23035398 -0.14209506 -0.004905311 -0.4151764 0.027600043 -0.030982526 -0.121469796 -0.10269459
0.09940469 -0.2675415 0.13036439 0.3145403 0.10765029 -0.031115444 0.05645661 -0.3742042
0.21762572 -0.13267127 -0.2065757 0.026210481 0.08024577 -0.20543233 -0.033724625 0.104954265
0.004120719 -0.015472854 -0.08546894 -0.25218797 0.0030271024 -0.01947908 0.02116167 0.20248681
-0.028403401 0.18662249 -0.07101769 0.09584821 -0.04180667 0.15571298 0.10968662 -0.017406119
0.1705691 0.19176395 -0.28272018 -0.32361233 0.12402425 -0.010332771 -0.0014672764 0.08857404
0.007097518 0.01214893 -0.14629348 0.119497135 -0.08114767 -0.029987987 -0.10933338 -0.06733995
0.06205096 0.20751779 0.23733723 -0.11554389 0.10696047 -0.14755285 0.19883768 -0.0140866805
0.07345346 -0.21330981 0.2667358 0.04919796 -0.31407923 0.071772285 -0.09187938 0.1082132
-0.0050605275 0.1342342 -0.07318236 0.014214729 0.16985373 0.05820878 0.09367923 -0.034873288
-0.118409105 0.15802205 0.109832704 0.09458083 0.028160376 -0.18637146 -0.06687127 0.22960268
-0.06168976 -0.060314257 -0.100507416 -0.022299847 -0.08548755 0.3507452 -0.054646734 0.16100882
-0.051634755 0.12223608 -0.1863218 -0.05757608 0.010384799 0.030915344 -0.07115572 -0.082652874
0.0019501975 -0.045512553 0.0421174 -0.12201585 -0.045002636 0.1401328 0.21156485 0.10886831
-0.47791705 -0.29330793 0.11320689 0.15983093 0.072634324 0.19061632 0.34955058 0.03523319
-0.37015697 0.10932992 -0.12888084 0.0437718 0.09982537 -0.2214776 -0.40764347 0.091451086
-0.09941182 -0.2542051 -0.032769997 -0.11138858 -0.09180024 -0.07191844 -0.016243428 -0.14576441
-0.15541877 -0.013406024 -0.14445074 0.37596714 0.029320508 0.07838714 0.09907363 0.050751776
0.16839163 -0.22657774 -0.0028901643 -0.10445196 -0.18819867 0.18594351 0.06587598 0.21719961
0.061555568 0.0435961 -0.44647524 -0.13770644 -0.1398207 0.23764157 0.044457134 0.076328374
-0.09227319 -0.056263804 -0.26697466 -0.104022235 -0.104914084 -0.1344551 0.10654039 0.013718713
0.108540654 -0.02064882 0.16529377 0.14492165 -0.30470943 -0.12285954 0.0116634695 -0.024343753
-0.1439854 -0.18005653 0.28723785 0.16200453 -0.0038651575 0.04211333 0.071247175 -0.0011338934
-0.21416165 0.07434134 -0.5823391 -0.025030091 -0.24460125 0.053716827 -0.15324618 -0.36047825
-0.23123175 0.024026318 -0.0065352977 -0.3565065 -0.07779535 -0.0108860405 -0.08331936 -0.23746148
0.00931057 -0.15274866 0.08993293 0.37077677 0.21751343 0.06766167 0.09962251 0.16485223
0.18223897 0.0005877161 -0.19967288 -0.0286436 -0.12543055 -0.24712661 0.10420273 -0.11477612

H_net.net.2.bias f4 [64]
00000000: 0134 e1bc 1984 6fbe 4e1a a8be e7c9 c3bd
00000010: af96 fabd dadb 90bd e9f6 6abe 4861 2fbd
00000020: 2acc d53d 2374 d93d e289 523a 36d1 01be
00000030: d0c4 813e c3cf be3d ffe6 97bd 3152 4d3d
00000040: 6327 81be fdc4 253c 557c bcbd 681e 0d3e
00000050: c9ce 023e fc6b 1b3e a7a4 db3d d962 b33e
00000060: 5ad8 3c3d 4ef1 e63d 3519 803d c585 f93d
00000070: 929e a53e ef2f a03d 20ad c7bd 1950 aa3d
00000080: f5b1 f2be 4ccd 7d3c 23f1 e7bc 0bf3 a33c
00000090: ad49 963e 3ce4 3e3d c398 b73d 7527 de39
000000a0: 141d 07be e80b f93d 6745 073e 20b1 bdbd
000000b0: 6bf0 0c3d 3131 69be 44e4 8b3c b36b 253d
000000c0: 0428 d1bd 70eb c63e 47ed 8dbe 422a 37be
000000d0: 7e73 c33c bfdf 10be b323 8fbd 8090 813d
000000e0: e384 acbd 81d8 81bd e8e0 b13d 0dc1 6f3b
000000f0: f205 963e 3970 803e 6737 313e 67f3 f23d
-0.027490618 -0.23390235 -0.3283257 -0.09559994 -0.12235772 -0.07073183 -0.22945751 -0.042817384
0.10439332 0.106178544 0.00080314104 -0.12677464 0.2534547 0.09316971 -0.07417106 0.050127212
-0.25225362 0.010117766 -0.09203402 0.1378113 0.12774195 0.15177912 0.10724764 0.35036352
0.046104766 0.11276494 0.06254808 0.12183718 0.32347542 0.078216426 -0.09749818 0.08316059
-0.47401395 0.015490841 -0.028313225 0.020013353 0.29353085 0.04660438 0.08964684 0.00042372537
-0.13194686 0.12160474 0.13210069 -0.092622995 0.034408968 -0.22772671 0.017076619 0.040385913
-0.102127105 0.388515 -0.2772009 -0.17887214 0.023858782 -0.14147852 -0.06989231 0.06326389
-0.08423784 -0.06340123 0.086854756 0.0036583573 0.2930141 0.2508562 0.1730629 0.118628316

H_net.net.4.weight f4 [1, 64]
00000000: 6f21 8f3e bf23 abbe 81bd a2be c92f ac3e
00000010: 0143 033f a438 ab3e 883c 863e a6c4 be3e
00000020: f916 d8be 5182 b73e 583d 14be fad6 603e
00000030: e0f9 e2be b5d7 04be 5587 c63d 33e7 2ebe
00000040: 7f16 59be 130c bd3e ce23 d73e 0a5f 86be
00000050: 3c81 b43e a8ee 083f 4fd3 aabe ecd1 c73e
00000060: 8b57 c83e 6cb2 64be eee7 fb3e 89d6 82be
00000070: 6a61 b9be 4291 423e 415c edbd 135d e1be
00000080: a720 2fbf 5d00 1b3e b878 a93e f53c 8d3e
00000090: 9131 a83e fc91 a1be 16ed 973e b041 fbbe
000000a0: b03d 87be 36fb 34be 8016 b4be 2eee 0c3e
000000b0: acaf fb3e 5d58 b83e 3c83 913e 2e28 e53e
000000c0: d542 a13e 2e14 b3be 2134 6dbe 1984 10be
000000d0: 7d81 96be 8699 4dbe cc9e 74be 9eeb 2d3e
000000e0: 22f3 083f 78c0 973e aa35 213f 1e5c e4be
000000f0: be96 bdbe 3197 c3be 9426 ecbe 209b 6bbe
0.27955195 -0.3342571 -0.31785205 0.33630207 0.51274115 0.3344165 0.26218057 0.37259406
-0.42205027 0.3584161 -0.14476526 0.21957007 -0.44331264 -0.1297291 0.09693781 -0.17080383
-0.21199988 0.36923274 0.42019504 -0.26244384 0.35254848 0.5348916 -0.3336434 0.39027345
0.3912929 -0.22333688 0.49200386 -0.25554302 -0.36207134 0.19000724 -0.11589862 -0.44016322
-0.684092 0.15136857 0.33099914 0.2758557 0.32850316 -0.3155669 0.2967307 -0.49073553
-0.2641425 -0.17673954 -0.35173416 0.13762733 0.49157465 0.36004916 0.28420436 0.44757217
0.314963 -0.34976333 -0.23164417 -0.14112891 -0.29395667 -0.20078096 -0.23888701 0.16984412
0.5349599 0.2963903 0.6297251 -0.4460153 -0.3702907 -0.38201287 -0.46123183 -0.23008394

G_net.net.0.weight f4 [64, 2]
00000000: f724 bb3e 0e62 033f 7cf7 bd3e 61cd 47bf
00000010: 3d55 a0be 33e5 ef3d 1f90 0cbd 69a2 7fbe
00000020: 1f7b ef3d 92d0 bcbd 03a6 7ebe 65da c5be
00000030: d16c 11bf bdce d53e 2821 bd3e 8bfc 18be
00000040: 8713 55bb eb1a 4abe f39e 3e3e eada 50bf
00000050: 4ddf cebe 3dc0 d03e 8fd1 39bf 1067 293f
00000060: 2492 15be 9f26 8fb9 76ed a5be 1d21 23be
00000070: 4b10 0fbf 27b9 babe ffcb ab3e ef65 08bf
00000080: a644 28be 94ca b03e 1a15 a73d cf9b 373f
00000090: 1360 073d 9dd6 28bd 9349 353f faa9 2a3e
000000a0: 1de7 01bf d950 5f3f 1534 48bd e0d7 8bbc
000000b0: f64b 4bbf 6fa3 bc3e e878 2fbd c050 423f
000000c0: ed70 013e 39ca 9a3d 0aa0 dbbb 817e 193d
000000d0: f828 873e f2f8 1bbe 9e90 40be ff9a 073e
000000e0: fb2f 513e c81a afbe a30d 9e3e a2a1 35bf
000000f0: 049e c8be 3465 973e ef69 74bb 538a 163e
00000100: 082d 1a3f 1bea 46bf 909e c0be 289f d8bd
00000110: 2503 a0be cc4a fabd be4f 1cbd 9152 333d
00000120: 2c8d 0d3f 1bfe 06bf 4012 3dbe 13e0 e9be
00000130: f01d b3be 8f20 5ebe f242 803d 1c21 7fbc
00000140: 8253 0cbf 8f20 69be 7c90 913c fdf2 b53e
00000150: 4837 86be 9860 e93d ebba d6bd 165b 103d
00000160: e0ef ec3d f7f9 943b ab63 c33d 9338 853e
00000170: d193 09bf 00b6 bf3c c359 143f 7f47 9ebe
00000180: 8399 783b 579d bd3e b939 233c e005 303b
00000190: efbb dd3e 3f7a cebe 45f1 aa3a 1c22 603e
000001a0: 6b87 bcbe da8e 02bd 2d1d 84bd 68d0 2dbf
000001b0: f09c d73d 4e89 10bd 551b 1bbf 5162 323f
000001c0: d0d1 a8be b687 91be dbfc ccbd 25d7 d4be
000001d0: d676 2dbf e071 bbbe 2cf2 e8be 5cdc e43e
000001e0: 952c 153e 7a33 cabc 3bab 2fbf 7e21 17bf
000001f0: 0e34 5ebe 328e 82be 342c b1bd 57af 2c3e
0.3655164 0.51321495 0.37102878 -0.7804776 -0.31315032 0.11713638 -0.034317132 -0.24964298
0.11693405 -0.09219469 -0.24868016 -0.38643184 -0.56806666 0.4175929 0.3693936 -0.14940087
-0.003251286 -0.19736831 0.18615322 -0.81584036 -0.4040474 0.40771666 -0.72585386 0.66172886
-0.1460653 -0.0002730386 -0.3240773 -0.159306 -0.55884236 -0.36469385 0.33554074 -0.5328054
-0.16432437 0.34529555 0.08158322 0.7172212 0.033050608 -0.041220296 0.7081539 0.16666403
-0.50743276 0.8723274 -0.048877794 -0.01707071 -0.7941278 0.3684344 -0.042839915 0.75904465
0.12640734 0.07558102 -0.0067024278 0.03747416 0.26398444 -0.15231684 -0.18805167 0.1324272
0.2042846 -0.3420012 0.3086978 -0.7094976 -0.39183056 0.295694 -0.0037294587 0.14701204
0.6022496 -0.77700967 -0.37620974 -0.10577232 -0.312524 -0.122212976 -0.038161986 0.043779913
0.55293536 -0.52731484 -0.18463993 -0.45678768 -0.34983778 -0.21692108 0.06262769 -0.015571859
-0.5481492 -0.22766326 0.01776909 0.35536948 -0.2621405 0.11395377 -0.104848705 0.035243116
0.1156919 0.0045463997 0.095404945 0.26019725 -0.53741175 0.023402214 0.57949466 -0.30913922
0.0037933297 0.37034103 0.009962493 0.002685897 0.43307444 -0.4032764 0.0013041875 0.21888012
-0.36822066 -0.031874515 -0.06450877 -0.6789613 0.1052798 -0.035287194 -0.6058858 0.6968127
-0.32972574 -0.28423852 -0.10009166 -0.41570392 -0.67759454 -0.36610317 -0.45497262 0.4469937
0.14567788 -0.024682749 -0.6862065 -0.5903548 -0.21699545 -0.2549911 -0.08651009 0.16863762

G_net.net.0.bias f4 [64]
00000000: 66d5 09bf 9768 4abf 6c9c 203e cb04 46be
00000010: adec 3cbe 40ec b23d 5069 03bd 1f03 04be
00000020: 4119 393e 06dd fc3d c03a 47bf 20a3 b73e
00000030: 42c9 f43e 1bca b33e f90e ff3d 0944 b9bd
00000040: 601f a2be 23dc 17bd 1a2f aabe ce51 debe
00000050: a03c 263f 952e fe3e e9a2 08bf 78a4 ed3e
00000060: b53d d83d 443d 6f3e d8e2 5dbe 5899 ac3d
00000070: 28bb 2cbf 944e 1bbf 4c99 f83c 8400 2e3b
00000080: 56ea 083f 8bf1 033f 22ee 533f 8df0 1ebf
00000090: d115 4dbe b2dd 73be d841 1dbf fcd2 fdbe
000000a0: 39d8 5f3f 6c9c 81be 1188 61bc 8920 6a3f
000000b0: 1ca1 26bf 00a4 0fbf 303f 60be 7585 db3e
000000c0: cd74 2c3f cab7 ad3b 0362 dabe 10ba d83e
000000d0: f7ae 02be c981 693c 4eb1 acbe ef2f d5be
000000e0: 07d6 043f b9e5 693e b5c9 233f 9f8e d4be
000000f0: 8499 05bf 96f5 113e 0376 68bf 114c 2d3e
-0.53841245 -0.7906584 0.1568467 -0.19337766 -0.1844966 0.08736467 -0.032082856 -0.12891816
0.1807604 0.123468444 -0.7782402 0.35866642 0.47809798 0.35115132 0.12454028 -0.0904618
-0.31664562 -0.037075173 -0.3323906 -0.43421787 0.64936256 0.49644914 -0.5337358 0.46414542
0.10558645 0.23363215 -0.21668565 0.084276855 -0.6747308 -0.60666776 0.030346535 0.00265506
0.5348257 0.5154044 0.82785237 -0.620858 -0.20027854 -0.23815039 -0.61428595 -0.4957503
0.87439305 -0.25314653 -0.013765351 0.91455895 -0.65089583 -0.5610962 -0.21899104 0.42875257
0.67365724 0.0053014504 -0.42652902 0.42329454 -0.12762056 0.014252135 -0.33729023 -0.41638133
0.5188908 0.22841538 0.63979656 -0.4151506 -0.5218737 0.1425384 -0.9080507 0.16923548

G_net.net.2.weight f4 [2, 64]
00000000: 5538 0f3d 4d92 c73d adc3 f93c 4cf8 42bc
00000010: fdd0 993c e45b b73d 5816 44bd ead2 8dbd
00000020: e0ca 953d d10d 023c dd1a a23d 426e e4bd
00000030: 439b 973d 7136 a7bd 80ea 413d 4f10 99bd
00000040: f0c9 61bd 7891 d83d eef7 663c 9525 fc3d
00000050: 38a4 ac3d db7a 1b3c aaab 063e cd3b e6bb
00000060: 313b b5bc 9405 12ba e943 e6bd 67d4 9e3c
00000070: f585 27bd bfc6 d5bd f444 833d 6f4f 6d3d
00000080: f535 5d3d 6e90 723d ea83 353d db72 1abe
00000090: f09a 193e eaeb fe3d a7ca f03c 5977 8f3c
000000a0: b389 e0bd 8e0c 5dbd bf00 933c 5ab8 0bbd
000000b0: 1daa dcbc 885e bd3c 3565 6fbd c53f a3bb
000000c0: db42 1b3d e735 d4bb 0ab5 fa3c fa33 f7bb
000000d0: 399c 253c 9ca6 d9bd 3dec acbc 9a33 39bd
000000e0: a1bb 1a3d b6fc 4abd 9d26 d43d 58d2 94bd
000000f0: f139 6b3d 51ab 27bd 672a 59bb a945 8dbc
00000100: 43ce c03a 5f79 75bd e72a 46bd 0c65 bd3d
00000110: 381f e6bd 0d0e d5bd ddfb 813d 9a9f a8ba
00000120: bf44 67bd 5e6e 02be 8a82 003b 0fca 2dbd
00000130: 6f50 5d3e 336a 47bd f938 b73d 37de 143c
00000140: cdea e33d 5c97 0bbd 68a1 1abe e036 36bd
00000150: d15b 83bd a920 213e 2e06 9dbc 8ff9 09bd
00000160: 18e8 cc3d 006e a43c 2f44 683d e726 fc3c
00000170: 26ab b53c 37bb b13d 2c7f 0dbe ae97 a0bd
00000180: a264 253d 58d6 dd3d 7985 12bc 9f4b 09be
00000190: ddf5 353d 1e1c 95bd 6c2f d0bd bd44 4ebe
000001a0: 4d6b a6bd cb2a cf3d 5dfd 5f3b f38d 5a3e
000001b0: d65f 92be 8ac3 a23d ce67 953c 2bc8 b2bd
000001c0: ec79 08be 7a27 7c3a b8b1 eb3d 9250 79bc
000001d0: 4610 9dbd d517 13be 6ccc d3bc a50d cbbd
000001e0: 8434 afbc cb90 90bc ee18 adbd 499e 56bd
000001f0: 0e78 10be 8eda 9e3d 19ed 57bd acab 8f3d
0.03496583 0.097447015 0.030488813 -0.011900019 0.018776411 0.089530736 -0.04787287 -0.06924994
0.07314086 0.007937864 0.0791528 -0.111538425 0.07402661 -0.08164681 0.047342777 -0.07473814
-0.055124223 0.10574621 0.014097197 0.12311856 0.0842976 0.00948974 0.13151422 -0.007026172
-0.022122951 -0.0005570289 -0.112434216 0.01938839 -0.040899236 -0.104382984 0.06409636 0.057937082
0.054006536 0.05921977 0.044315256 -0.15082876 0.1500051 0.12447341 0.029393507 0.017512964
-0.10963764 -0.05396705 0.017944692 -0.03411136 -0.026936585 0.023116365 -0.058446128 -0.004981967
0.037905555 -0.006476152 0.030603904 -0.007544038 0.010108047 -0.10627481 -0.021108741 -0.045215227
0.037776593 -0.04955741 0.103589274 -0.072666824 0.057428304 -0.040934864 -0.0033136846 -0.01724513
0.0014709908 -0.0599302 -0.04838076 0.09247789 -0.11236423 -0.104030706 0.06346867 -0.0012864948
-0.056462046 -0.12737414 0.0019609057 -0.042429026 0.21612714 -0.048685264 0.089464135 0.009086183
0.11128769 -0.034079894 -0.15100634 -0.044485927 -0.06413997 0.15735115 -0.019167986 -0.033685263
0.10005206 0.020071983 0.05670565 0.030780269 0.022176336 0.086782865 -0.13818043 -0.078414306
0.040379174 0.108318985 -0.008942955 -0.13407753 0.044423927 -0.072807536 -0.10165295 -0.20143409
-0.08125935 0.10115584 0.0034178116 0.21343212 -0.28588742 0.07947452 0.018237974 -0.08729585
-0.1332776 0.00096189196 0.115085065 -0.015216963 -0.076691195 -0.1436456 -0.025854312 -0.09914712
-0.021387346 -0.017647168 -0.084520206 -0.052397046 -0.14108297 0.0775653 -0.05271635 0.07015166

G_net.net.2.bias f4 [2]
00000000: 5372 3cbd 02ba 983e
-0.046007466 0.29829413
